Predictive_maintenance_blaatter_Python/Kurz_4_Modeling Supervised Learning Support Vector Machines/Vorlesungen/Datei_aufgabe/data/bearing/B021_3.npy (npy, 800128 bytes, 1 tensors)

array f8 [100000, 1]
000000 69 6a 33 54 d3 8b b2 3f ed 4f 46 76 c1 88 a8 3f
       0.07244606786427145 0.04791836327345309
000010 1d e0 00 c6 1a 0d d0 bf 89 7d 36 40 dc 47 9a bf
       -0.25079984031936126 -0.025664750499001996
000020 b3 4e 9f f8 3f d2 ca 3f 07 7e ac a5 a9 5d b9 bf
       0.20954131736526946 -0.09908542914171657
000030 b6 fa cf 38 7f 8a cf bf d9 00 13 ad 06 1b c4 3f
       -0.24641409181636725 0.15707477045908183
000040 70 bc 2a 7e 5e 7c d1 3f 16 ab b5 bf cd 49 d1 bf
       0.2732158882235529 -0.270129620758483
000050 48 44 0f 11 14 8e c8 bf 37 0e 67 f5 02 e2 d0 3f
       -0.1918358882235529 0.2637946506986028
000060 72 f5 96 fa 3f ab b3 3f 3e d9 8c 39 df db cc bf
       0.07683181636726547 -0.22545996007984032
000070 e2 1e 1c e6 08 31 bd 3f b3 4b 6a 4d 46 92 d5 3f
       0.11402946107784431 0.33705289421157686
000080 84 0b 5e 47 19 ea b5 bf 08 64 35 2d 65 70 be bf
       -0.0856033133732535 -0.11890251497005988
000090 47 41 da 65 1a 4e d3 3f c4 64 66 45 19 11 bd 3f
       0.3016420359281437 0.11354215568862275
0000a0 99 3d e5 ec 95 2a da bf f8 0d ac 42 1c 57 b1 bf
       -0.40884922155688624 -0.06773544910179641
0000b0 f4 14 02 64 aa 02 da 3f c7 0a 2d 2f 65 49 77 3f
       0.40641269461077845 0.0056852295409181635
0000c0 ac f9 72 23 bb a1 d6 bf a1 52 4f 24 ab 80 b3 3f
       -0.35362127744510974 0.0761820758483034
0000d0 d5 74 c3 3b ff cf d4 3f c4 64 66 45 19 11 bd bf
       0.32519512974051895 -0.11354215568862275
0000e0 6c c3 80 9f ec 27 ca bf 6f dc 0b 4d 96 e9 b6 3f
       -0.20434339321357287 0.08950175648702595
0000f0 f3 34 e3 32 e2 6f af 3f 71 35 59 98 af 85 be bf
       0.061400479041916166 -0.11922738522954092
000100 87 24 e9 f4 c2 ab b2 3f 10 7c d4 0f 74 06 bd 3f
       0.07293337325349301 0.11337972055888224
000110 e3 fe 3a 17 d1 c3 c7 bf 8b b0 38 66 ca f6 b1 bf
       -0.18566335329341319 -0.07017197604790419
000120 78 47 8e 24 cb 9b c2 3f 74 4e e4 45 59 47 9b 3f
       0.14537944111776446 0.02663936127744511
000130 e1 38 93 5e 4d 1e c8 bf 2e f6 c7 12 f4 4b 82 bf
       -0.188424750499002 -0.008933932135728542
000140 21 8c 31 06 5a c5 c4 3f 1a c7 75 18 71 4b a3 bf
       0.16227269461077845 -0.0376849500998004
000150 a1 52 4f 24 ab 80 b3 bf c7 0a 2d 2f 65 49 77 bf
       -0.0761820758483034 -0.0056852295409181635
000160 da 06 7d 03 fa 9a 8e bf 06 98 23 1e ee 4a b4 bf
       -0.014944031936127745 -0.07926834331337326
000170 c0 d8 16 d4 11 c6 9d 3f b7 da ee 69 47 1d ba 3f
       0.029075888223552893 0.1020092614770459
000180 b2 db da 34 e2 48 88 3f 26 6b 64 6c 87 2c b1 3f
       0.011857764471057883 0.06708570858283433
000190 ea a3 15 36 82 d0 c3 3f a9 dd b2 ca 17 a0 c4 3f
       0.15480067864271457 0.1611356487025948
0001a0 e5 37 a7 93 b2 f2 99 3f ec 69 bd ee 05 76 93 bf
       0.025339880239520957 -0.01900491017964072
0001b0 0a 97 37 53 53 1f 96 bf ed 4f 46 76 c1 88 a8 bf
       -0.021603872255489022 -0.04791836327345309
0001c0 69 1d ba b5 a0 ef 8f 3f 1f c6 89 4d d6 1f 95 3f
       0.01559377245508982 0.02062926147704591
0001d0 df 52 0a d7 91 0b a3 3f 23 c5 9d 82 3b f4 86 3f
       0.03719764471057884 0.011208023952095808
0001e0 04 25 5f 5a 90 c1 b1 3f 0f 96 4b 88 b8 f3 57 bf
       0.06935980039920159 -0.0014619161676646707
0001f0 c5 44 85 76 e1 a3 c7 bf 0b 77 56 84 1b b2 c0 bf
       -0.18468874251497006 -0.13043540918163674
000200 ac a9 c4 d9 8e c5 ae bf 03 65 21 f8 ff 9b 8c 3f
       -0.06010099800399202 0.01396942115768463
000210 56 21 6a e1 0b 9e 78 bf f0 68 d1 23 6b 4a 45 3f
       -0.006010099800399201 0.0006497405189620758
000220 8b b0 38 66 ca f6 b1 3f 1b ad fe 9f 2c 5e a8 3f
       0.07017197604790419 0.04759349301397205
000230 0f 96 4b 88 b8 f3 97 3f 33 f5 db 47 59 20 94 3f
       0.02339065868263473 0.019654650698602793
000240 f5 67 e5 58 d0 1e a7 3f a4 de 9e 95 b2 cb a2 3f
       0.04515696606786427 0.03671033932135728
000250 74 4e e4 45 59 47 8b bf 18 94 73 f2 82 9c 8b bf
       -0.013319680638722554 -0.013482115768463074
000260 49 97 f2 05 3a aa b5 3f a7 aa b0 a4 29 f1 9c 3f
       0.08462870259481038 0.0282637125748503
000270 84 eb 7c 78 e1 7c c0 bf 87 b1 24 31 65 22 c0 bf
       -0.12881105788423153 -0.12604966067864273
000280 4d 23 42 77 41 f5 a4 bf 87 b1 24 31 65 22 b0 3f
       -0.04093365269461078 0.06302483033932137
000290 ac f6 3d 78 c1 61 a1 3f af c2 4f 87 38 87 ab 3f
       0.03394894211576846 0.053766027944111776
0002a0 00 4c 96 4a 56 da bf 3f 18 8e 09 9c 8f 1c c1 3f
       0.12442530938123753 0.13368411177644712
0002b0 67 37 31 2e e5 dc ba 3f 39 da 78 04 7a 07 bb bf
       0.10493309381237524 -0.10558283433133732
0002c0 25 1e eb cd 54 90 be bf 44 25 1a 0d 77 4c b1 bf
       -0.11938982035928143 -0.0675730139720559
0002d0 bb d9 02 9f ac f1 7b bf 0f 96 4b 88 b8 f3 97 bf
       -0.006822275449101796 -0.02339065868263473
0002e0 14 95 5f bd 1d c8 a9 bf 1c 20 c3 63 8a e7 ba 3f
       -0.05035489021956088 0.10509552894211577
0002f0 79 4d f8 7a be 1b bd 3f 36 4e 29 93 72 bc bb 3f
       0.11370459081836327 0.10834423153692616
000300 c8 ea 4b 60 2d dc c1 bf 98 3a b0 41 9c ea c4 bf
       -0.1395317764471058 -0.16340974051896207
000310 8b b0 38 66 ca f6 71 bf 06 98 23 1e ee 4a a4 bf
       -0.004385748502994012 -0.03963417165668663
000320 ce af 07 4e 16 56 b3 bf aa 50 77 8e 75 29 b7 bf
       -0.07553233532934131 -0.09047636726546907
000330 5f 19 28 f5 e2 c6 c1 3f 4c b0 7d b3 e3 6b b2 3f
       0.13888203592814372 0.0719587624750499
000340 ba 0d f1 8f 35 cc 91 bf 47 f1 2b 1c ee 71 ab 3f
       -0.017380558882235532 0.05360359281437126
000350 8b 63 bf c7 97 5a af 3f be 0c 05 c5 9a a0 93 bf
       0.06123804391217565 -0.019167345309381238
000360 69 1d ba b5 a0 ef bf bf 66 de e3 e2 cb 40 b3 3f
       -0.12475017964071856 0.07520746506986029
000370 21 92 9b 5c 4d 45 7f 3f d0 95 90 d5 d1 68 b8 bf
       0.007634451097804391 -0.09534942115768463
000380 58 54 6c 07 fa 4c a0 bf 66 51 a8 a6 29 ca 95 bf
       -0.031837285429141715 -0.021279001996007983
000390 ad 69 02 3c 1f eb b3 bf 76 81 e6 6b 47 f6 c2 bf
       -0.07780642714570858 -0.14814083832335329
0003a0 f6 4d 6e e0 8b 31 bc 3f d4 94 a4 0a 37 3d ca 3f
       0.11013101796407185 0.20499313373253492
0003b0 c6 24 a4 a7 a9 36 b2 3f 29 aa 3a 3f 5c db bd 3f
       0.07114658682634731 0.11662842315369261
0003c0 b6 fa cf 38 7f 8a cf 3f 41 7f 53 23 2b 14 b7 3f
       0.24641409181636725 0.09015149700598803
0003d0 48 b7 d3 d4 71 17 cb bf 5b 20 7e 16 71 72 aa bf
       -0.2116529740518962 -0.05165437125748503
0003e0 9c 53 3b ef 45 ac b1 3f fa d3 53 fb 9f fc c0 bf
       0.06903493013972056 -0.132709500998004
0003f0 47 64 f0 df 4b fb bd bf 3c 80 3f ee c5 3f c5 3f
       -0.11711572854291417 0.16600870259481038
000400 03 42 0b 7e ce ee d1 3f 69 1d ba b5 a0 ef 6f bf
       0.2802005988023952 -0.003898443113772455
000410 d3 3b 57 bf 1d a1 62 bf f3 34 e3 32 e2 6f af 3f
       -0.0022740918163672657 0.061400479041916166
000420 48 24 2e 42 dc 20 c3 bf 1c 8d 1d d1 f4 f0 c2 bf
       -0.14944031936127744 -0.14797840319361277
000430 1a 54 b1 54 13 c2 b0 3f 61 df cf ad 66 6c b1 3f
       0.06546135728542915 0.06806031936127745
000440 a7 37 ec e0 cb 67 ca bf be 0c 05 c5 9a a0 83 3f
       -0.2062926147704591 0.009583672654690619
000450 62 58 fe c7 b7 75 ce 3f 61 52 94 71 c4 f5 a3 bf
       0.23796746506986027 -0.03898443113772455
000460 62 c2 23 8a 28 3f d1 bf 85 7e 22 0b 77 73 98 bf
       -0.26947988023952096 -0.02387796407185629
000470 65 71 89 75 61 37 cb 3f 9c c6 ff b2 a3 35 a4 bf
       0.2126275848303393 -0.039471736526946105
000480 90 22 11 5f 8d 54 b6 bf 3c 80 3f ee c5 3f b5 3f
       -0.08722766467065868 0.08300435129740519
000490 38 f4 ef 7c be f4 a5 3f c3 eb 37 2b c8 07 c0 bf
       0.042882874251497005 -0.12523748502994012
0004a0 18 94 73 f2 82 9c 8b bf 41 0c 8f 5f cd 8a a4 3f
       -0.013482115768463074 0.04012147704590819
0004b0 7d 46 a2 59 30 70 c4 bf f5 67 e5 58 d0 1e a7 bf
       -0.15967373253493014 -0.04515696606786427
0004c0 3c 13 e5 80 5b 36 cd 3f 8f 42 f2 2d c5 c1 cb 3f
       0.22822135728542914 0.2168508982035928
0004d0 4b f0 3f 51 53 46 7d bf d3 3b 57 bf 1d a1 92 3f
       -0.0071471457085828345 0.018192734530938125
0004e0 9a 00 58 fa 1f 90 c4 3f 56 21 6a e1 0b 9e 98 bf
       0.16064834331337324 -0.024040399201596806
0004f0 61 df cf ad 66 6c d1 bf 69 6a 33 54 d3 8b c2 bf
       -0.2722412774451098 -0.1448921357285429
000500 c3 0b 19 fa ff 74 95 3f 73 68 5b be 9d 34 b6 bf
       0.020954131736526948 -0.08674035928143713
000510 4a 0a b7 c9 97 33 a8 bf 50 af 91 e8 48 40 c4 3f
       -0.04726862275449102 0.15821181636726545
000520 a9 dd b2 ca 17 a0 94 3f 67 31 c7 d7 f1 5c c0 bf
       0.02014195608782435 -0.12783644710578843
000530 4b f0 3f 51 53 46 7d 3f 5d 53 80 3c 5f 21 b2 3f
       0.0071471457085828345 0.07082171656686627
000540 7d 4c 0c b0 23 f0 8e 3f d1 c8 92 fb bf 17 b0 bf
       0.015106467065868262 -0.06286239520958083
000550 e0 c5 ce 9a ef 94 b5 3f 06 9e 8d 74 e1 ca ce 3f
       0.08430383233532934 0.24056642714570858
000560 4c b0 7d b3 e3 6b b2 3f a7 aa b0 a4 29 f1 ac bf
       0.0719587624750499 -0.0565274251497006
000570 69 1d ba b5 a0 ef 4f 3f ba 0d f1 8f 35 cc 91 bf
       0.0009746107784431138 -0.017380558882235532
000580 80 7f 0e d6 11 9f b6 bf df 52 0a d7 91 0b b3 bf
       -0.08836471057884232 -0.07439528942115768
000590 2e a9 4e 74 c1 af af 3f dc 39 7f 29 e8 49 b6 3f
       0.061887784431137724 0.08706522954091817
0005a0 21 92 9b 5c 4d 45 9f 3f 17 ae ea 6a c7 89 a6 3f
       0.030537804391217564 0.04401992015968064
0005b0 4d 23 42 77 41 f5 a4 3f 71 82 d2 36 e2 21 b1 bf
       0.04093365269461078 -0.0669232734530938
0005c0 80 f2 d2 99 6f 28 c9 bf fc 99 fb b3 23 a2 70 bf
       -0.19654650698602794 -0.004060878243512974
0005d0 bb d9 02 9f ac f1 6b 3f 48 24 2e 42 dc 20 93 3f
       0.003411137724550898 0.01868003992015968
0005e0 47 64 f0 df 4b fb cd 3f 24 18 81 77 61 10 c4 3f
       0.23423145708582835 0.15674990019960078
0005f0 a9 dd b2 ca 17 a0 84 bf 15 c8 61 e3 0b 77 b1 bf
       -0.010070978043912176 -0.06822275449101796
000600 3c f3 03 b2 23 c9 a7 3f d1 08 55 99 2f f2 aa bf
       0.04645644710578842 -0.05262898203592815
000610 68 a4 8b 9b 4f e6 c2 bf 42 f2 17 e7 88 9d a9 bf
       -0.14765353293413175 -0.050030019960079844
000620 88 97 ad b8 20 35 c5 3f 59 c7 30 cb 57 d6 c2 3f
       0.16568383233532935 0.14716622754491018
000630 fb d9 bd 51 93 7c bb bf 0f 96 4b 88 b8 f3 67 3f
       -0.10736962075848304 0.0029238323353293415
000640 02 7f 98 70 44 89 a7 3f 3c 0d 7b 2a 68 b6 b2 bf
       0.045969141716566866 -0.07309580838323354
000650 fe 7f 84 3b df b4 c5 bf be 0c 05 c5 9a a0 83 bf
       -0.16958227544910182 -0.009583672654690619
000660 e2 91 e0 a9 66 ba bf 3f 21 92 9b 5c 4d 45 9f 3f
       0.12393800399201596 0.030537804391217564
000670 ca b0 f3 18 b1 81 b1 3f fe 7f 84 3b df b4 b5 3f
       0.06838518962075849 0.08479113772455091
000680 2a f7 b3 dd 8e 77 90 bf a0 e5 f4 b6 40 77 cb bf
       -0.016081077844311377 -0.21457680638722554
000690 7c d3 dd 95 d2 e6 c1 bf 38 f4 ef 7c be f4 85 bf
       -0.13985664670658682 -0.010720718562874251
0006a0 af c2 4f 87 38 87 bb bf 71 82 d2 36 e2 21 91 bf
       -0.10753205588822355 -0.01673081836327345
0006b0 36 4e 29 93 72 bc bb 3f 90 22 11 5f 8d 54 b6 3f
       0.10834423153692616 0.08722766467065868
0006c0 33 f5 db 47 59 20 a4 3f fe 65 0d c3 9a c7 9a 3f
       0.039309301397205586 0.02615205588822355
0006d0 99 ad 74 05 fa 73 97 bf 55 3b e1 59 50 8b c3 bf
       -0.022903353293413174 -0.15268902195608783
0006e0 c9 f0 b5 b6 20 5c ac bf e2 91 e0 a9 66 ba bf 3f
       -0.05539037924151697 0.12393800399201596
0006f0 76 0e 22 a8 e9 6c c0 3f 6b 50 bc db 8e 9e 97 bf
       0.12832375249501 -0.023065788423153693
000700 38 f4 ef 7c be f4 75 bf d6 e7 87 ff 5c 59 c7 3f
       -0.005360359281437126 0.1824146506986028
000710 7b 80 fa a0 ac ca a4 3f 0c f0 84 9e 6c bb bd bf
       0.04060878243512974 -0.11614111776447106
000720 bd 99 40 01 3d 17 b1 bf 25 ab 26 0a f7 06 bc 3f
       -0.06676083832335329 0.10948127744510978
000730 d1 08 55 99 2f f2 aa 3f 55 3b e1 59 50 8b a3 bf
       0.05262898203592815 -0.03817225548902196
000740 16 3b 26 a7 69 00 c4 3f 1c 20 c3 63 8a e7 ba 3f
       0.15626259481037924 0.10509552894211577
000750 c0 d8 16 d4 11 c6 bd bf 28 51 ed f3 42 3f c6 bf
       -0.11630355289421157 -0.1738055888223553
000760 be 0c 05 c5 9a a0 83 3f 21 92 9b 5c 4d 45 9f bf
       0.009583672654690619 -0.030537804391217564
000770 9a 00 58 fa 1f 90 c4 bf d9 20 f4 7b 3e 88 a9 3f
       -0.16064834331337324 0.049867584830339325
000780 e5 c4 e2 cf 54 69 c7 3f 1a c7 75 18 71 4b 93 bf
       0.18290195608782436 -0.0188424750499002
000790 f2 2e 79 dc ee ef c4 bf 18 94 73 f2 82 9c 8b 3f
       -0.16357217564870258 0.013482115768463074
0007a0 ee 35 cf fd 7c 9b ad bf dc ac 43 ed 45 d3 c8 bf
       -0.057826906187624746 -0.19394754491017963
0007b0 cc 09 41 64 ca 1d a9 3f b8 4d b3 2d a5 a6 cc 3f
       0.04905540918163673 0.22383560878243514
0007c0 55 3b e1 59 50 8b b3 3f 74 4e e4 45 59 47 9b 3f
       0.07634451097804391 0.02663936127744511
0007d0 21 8c 31 06 5a c5 d4 3f 7c d3 dd 95 d2 e6 d1 3f
       0.3245453892215569 0.27971329341317364
0007e0 82 25 d5 bf 5d d7 c0 bf 4b ea d5 fa 5f c6 c2 bf
       -0.13157245508982035 -0.14667892215568865
0007f0 82 25 d5 bf 5d d7 b0 3f df 52 0a d7 91 0b a3 3f
       0.06578622754491018 0.03719764471057884
